model/model.pth (torch, 17216 bytes, 4 tensors)

linear1.weight f4 [256, 11]
00000000: 6330 cc3d ee2c 433e 4a3c 47be 2145 8c3e
00000010: bf10 58be 4de6 ce3e 182c b0be 0be5 a13d
00000020: bc12 08bf d6df d93d 4cb3 11bf 1b84 4b3e
00000030: 0216 00bf c782 413e 2b5a 91be 80e9 533d
00000040: 36d3 b7be 18e5 653e 6510 713e 44af 5dbc
00000050: 8921 453e e10b 8ebe ee13 09be 6e1d f6bc
00000060: 9bb0 d63d af72 ea3e cb95 093f f06a adbe
00000070: 9a9a 5cbe 6ba7 c1be 4024 e1be 42e9 e43e
00000080: a3ff a43e 0b53 3ebd dbe1 883d fee0 353e
00000090: f39c 48be 8fdf e2be c1b0 953d ddb7 afbe
000000a0: 0869 63be 6a02 6d3e 2e61 50be f86e ddbe
000000b0: 3a4d 183e 2e14 993e 5e67 d63e e0a9 09be
000000c0: eed3 e53d fade 9abd cbb2 5e3e 1c99 b03e
000000d0: 3c16 4b3e 4f66 c13e 9ca2 60bd bc7d de3e
000000e0: cbec ba3e 9030 ccbe 395b 513d 2073 33be
000000f0: d2ce 553e 4e6f 8bbd 2f63 a93d 132e 693e
00000100: e2fd 12be 4c48 283e 8f6f e0be 9c61 cd3e
00000110: 65b0 58bd 6808 643e b642 78bc 79a2 3fbd
00000120: efc1 1fbf 8bcf 993e 6296 ef3d 1c6b f0bb
00000130: efab 98be c38a 053e aa76 c0bd acaa 7fbe
00000140: 204b d43c 86e9 7a3e 00ce c93a a45b 83be
00000150: 69e2 8abe 8ec6 bdbd 080c 3abe a173 64be
00000160: 8e6d 0ebf d861 83ba d95b 2ebe b312 833e
00000170: 753f 00bf ee74 983e 2ece 73bc 459f 6ebe
00000180: 3f17 1cbf c06d c8bd 9747 af3d d40f c2bd
00000190: 3faf 70be a416 f73e 4573 2ebe de2c 0b3c
000001a0: f184 bdbe fa09 b5be 9d29 053e 60f5 193e
000001b0: e172 82be 9acc 0ebe 3690 083f 5e5c 48bc
000001c0: e911 bdbd d354 2ebe 8d67 0fbf 8af2 493d
000001d0: 7dc3 2f3e e34e faba 0eac a03e 2aa1 62be
000001e0: f6c5 d9be 6025 d93e c2aa 283d f67c 2f3f
000001f0: 6a3d 07be 6f35 b43d 81de 04be 9051 afbe
00000200: f32b 563e 4d3a 223d b3f4 313e 1d6c f53e
00000210: 63b6 63be 156a 993e 3346 07be 40d0 b4bd
00000220: a366 babe df03 c73e bcc4 333e 179c 033e
00000230: 9f06 c23e f33e b7be 0cd5 3ebf 84da 07bf
00000240: 3a48 023f 3ae8 0a3f 5950 ff3d e058 e93c
00000250: 5ed5 d03d d923 36be b575 4b3e fc59 b63e
00000260: 2046 963e 9ca4 7dbd 8552 d6bd 482e 94be
00000270: 1a87 d63e 75cd a53e f6e4 6e3e 401a 803e
00000280: b106 bdbe 1269 93be b19a 3bbd 432e 26bd
00000290: b198 02bf 188d ac3e bef7 f73e 29ad e3be
000002a0: ccae 433e 2562 98be 1eec b2be 4deb 4a3e
000002b0: 284a e3be 867a 023e 97c5 88be 4813 a53d
000002c0: 7235 223f 682f 95be 5944 10be 40d1 e03d
000002d0: 83ab 213e f15e 953e 628f 76bd 3762 a4bc
000002e0: 4e50 6f3c fa8b 98be ab60 c33d eda3 cabe
000002f0: 25d9 cebd d9e6 ba3e 9f7c a43e 9872 163e
00000300: 4a11 71be a0fb a1bd 3905 af3d f650 5f3e
00000310: 5703 d6be f599 0abf 8876 56be c1fe 3dbe
00000320: 0e22 7fbd c52f 8fbe 482d 0abe 4869 5cbe
00000330: 0a34 d53e e24e e2be 8f43 c3be bacf cebe
00000340: c76d 8e3e 4746 4d3e 8059 de3e 8053 cbbe
00000350: 836c 8dbd 6aa5 41be 4be8 19bd a35b fdbd
00000360: fa65 033e 341c 8b3d 0cbb 623e 1bcf 253e
00000370: 7b2d c53e 6bac 973e 43ab 3d3e d20a 37be
00000380: 8845 163e 8e76 e2bd b2b0 3abd fbad 693e
00000390: b3c9 5fbd 50e3 5a3e a7d2 6d3e 847a 52be
000003a0: 2a64 853d 20ec 02bc a5e2 46be 7076 36be
000003b0: 5270 8abe 7c2e 05be ab03 99be f006 74be
000003c0: 4661 373e c9de 71be 930c 193c 0e00 ebbd
000003d0: 843f 94bd 2078 51ba b3db bdbe 4a05 8ebe
000003e0: 44ab 3d3c 692e 59be 760b 8cbe 0c08 263e
000003f0: 38f8 58be cd03 81be 77b5 993d e5b4 3f3e
0.099701665 0.19060108 -0.19456592 0.2739649 -0.21100138 0.4041008 -0.3440864 0.079050146
-0.53153586 0.106383964 -0.5691421 0.19874613 -0.5003358 0.18897544 -0.28389105 0.051736355
-0.3590333 0.22450674 0.2354141 -0.013530556 0.19251074 -0.27743438 -0.13386509 -0.03004333
0.104829036 0.45790622 0.5374419 -0.3387065 -0.21543351 -0.37823042 -0.4397297 0.44709212
0.32226285 -0.046465915 0.066837035 0.17761609 -0.19591121 -0.44311187 0.07309104 -0.34319964
-0.22208035 0.23145452 -0.20349571 -0.43248725 0.1487321 0.29898208 0.41875738 -0.13443708
0.11222063 -0.07562061 0.21747892 0.34491813 0.198327 0.37773368 -0.054842576 0.43455303
0.36508784 -0.398808 0.051112387 -0.17524385 0.20879677 -0.06808339 0.08270871 0.22771482
-0.14354661 0.16433829 -0.43835112 0.40113533 -0.052902598 0.22268832 -0.015152624 -0.046785805
-0.62405294 0.30041155 0.11698605 -0.007336987 -0.29818675 0.13041215 -0.093976334 -0.2496745
0.025914729 0.24503145 0.0015396476 -0.25655854 -0.27125862 -0.09266387 -0.18168652 -0.22309734
-0.5563592 -0.0010023667 -0.17027225 0.25600204 -0.5009683 0.2977671 -0.0148807 -0.23302944
-0.6097297 -0.09786558 0.085585766 -0.09475675 -0.23504351 0.4825946 -0.1703616 0.008494584
-0.3701549 -0.35359174 0.13004155 0.1503501 -0.2547827 -0.13945237 0.5334505 -0.012229053
-0.09231932 -0.17024545 -0.5601738 0.04930357 0.17164417 -0.0019096996 0.31381267 -0.22131792
-0.42533845 0.42411327 0.041178472 0.6855005 -0.13207021 0.08799254 -0.12975504 -0.34241915
0.20915203 0.03960638 0.17378502 0.47934046 -0.22237544 0.29963747 -0.13210373 -0.08828783
-0.3640643 0.3887014 0.17555517 0.12852512 0.37895676 -0.35790214 -0.74543834 -0.53067803
0.5089146 0.542606 0.12466497 0.028484762 0.101969466 -0.17787112 0.1986912 0.35615528
0.29350376 -0.06192456 -0.10464958 -0.2894156 0.4189995 0.32383314 0.23329529 0.25020027
-0.36919168 -0.287911 -0.045801822 -0.040571462 -0.5101424 0.33701396 0.484312 -0.44468048
0.19109648 -0.29762378 -0.34945768 0.19816323 -0.44392514 0.12742051 -0.2671325 0.08060318
0.633628 -0.2913773 -0.14088573 0.10977411 0.15788083 0.29173997 -0.060195334 -0.020066364
0.0146065485 -0.29794294 0.09539922 -0.3957819 -0.10100011 0.36504248 0.32126328 0.14692152
-0.23541752 -0.07909322 0.08545918 0.21808228 -0.41799423 -0.5414117 -0.20943654 -0.18554212
-0.062288336 -0.27966133 -0.13493836 -0.21524537 0.41641265 -0.44200808 -0.3813748 -0.40392858
0.27818128 0.2004634 0.43427658 -0.39712143 -0.069054626 -0.18910757 -0.037575047 -0.12370994
0.1283187 0.06792489 0.22141665 0.16192286 0.3851126 0.29623732 0.18522362 -0.17875221
0.14674962 -0.11057769 -0.045578666 0.22820275 -0.054635715 0.21375775 0.23224889 -0.20554549
0.065132454 -0.007990867 -0.19422396 -0.17818618 -0.2703882 -0.13006014 -0.2988561 -0.23830771
0.179082 -0.23620142 0.009341377 -0.1147462 -0.07238677 -0.00079906173 -0.3708168 -0.2773841
0.011576477 -0.2120911 -0.27352494 0.16214007 -0.21188438 -0.25198212 0.07505315 0.1872135

linear1.bias f4 [256]
00000000: b2e8 563e f394 f3bc d2d0 9fbd b457 a83d
00000010: c48a c6be 98d2 f8bd cb1a b93d fa46 96be
00000020: 2021 c13e 1574 2a3e d70a 223e 3061 18be
00000030: de6e 56bd 85a8 c7bd 9633 d23e c502 1e3d
00000040: bef7 fbbc aed7 173e 1023 94bd 4d00 45bd
00000050: 98cb 28be 82b4 02be cc84 433e 5984 563d
00000060: f6a9 603e 920d 14be 58a6 343d ab95 acbe
00000070: 8ed1 eabe 1f3d 84be 6e8e b23d f9b3 6bbe
00000080: 14af 11be ab59 2d3e ce7a 69be ee4b 15be
00000090: ea5d 3ebe cc95 00bd d9fa 3d3e 073f 5cbe
000000a0: fa68 103b 75a8 a73e 270f e93d fcfd 7d3e
000000b0: 059c a13e 75c5 c23d 594e 42be b8d9 1bbe
000000c0: 33d6 a6be 0e1a 37bc d2c3 2ebe cdab fc3e
000000d0: 9b54 14bc f5ae 11be e0e2 7dbd b771 a6be
000000e0: 9267 50bd ab75 f23c cba3 6fbe 412d 6f3e
000000f0: 42a0 8fbd e4fa bcbe c39a 0c3e 67ca 1bbe
00000100: 7251 0abe 2f50 8b3d 2262 8e3e 7379 05be
00000110: a2ed 293e 1c56 99bd 4588 0fbe a3ae 49bd
00000120: 2fbf 863d da4e 913d 72b4 2e3e 854c c9bd
00000130: 12e8 833e c79f 0a3e 565c 84be 70d3 193e
00000140: 0863 3abe 3207 fdbb e26c b9be 729e 40be
00000150: 2ef6 24bd c06d 27be 7381 b1bd e313 8dbe
00000160: 8e01 abbe 8747 253d ee15 ebbd 646b 9abe
00000170: c8ac e1bd 88c2 3c3d d1ce eabd f8bb e4bd
00000180: d570 843d 8dc9 dbbd b42e 9fbc ced7 d83c
00000190: 00c6 ec3e ddf4 ae3e fc62 2cbd 64a8 fcbd
000001a0: d2eb 8dbe d10d a1be 056e 3abe fe8e f3bd
000001b0: 6b17 0fbe 1d67 25be af40 b6bd f840 b8bd
000001c0: 0d19 4ebe c18f 923e 45ba 54be 0567 97bd
000001d0: ec3c d9bd 4770 953e 3828 a3be 6993 e6bd
000001e0: 5d9f 2dbe 70b6 953e 90f3 19be 4c34 5abd
000001f0: f0d0 8ebe 8386 c43e 5e10 82be b2a5 113d
00000200: 18d0 443e 0bdc c5bd b47a 91bd 3101 7abe
00000210: e736 2abe e404 ee3d a703 a0be 73e9 69be
00000220: 809a 03bd 1e59 cbbd 2548 84be 65be 8fbd
00000230: 1255 d0bd 1539 5e3e 5d8e 33be 05be a33d
00000240: 3dd8 77bd bcf7 433e a306 9d3d f380 f93e
00000250: 985a f33e fe00 58be 75c3 17bd 6caa 2f3e
00000260: 2ae8 2d3d 4541 41be 6e33 f8bd 1f61 73be
00000270: 0eb2 48be a1e4 45bd 37b5 a93e cf95 36be
00000280: 1bc1 61be fbcc 073e 8817 f6bd 6344 06be
00000290: 8830 9bbe d217 f9bd 4702 44b9 cc25 e1bd
000002a0: c1b3 023e 2074 e73e eb4e 87be 7a7d fd3e
000002b0: e407 cabe b4c5 96be 7092 783e e803 b1be
000002c0: 0276 7c3d 7764 8a3e 6f67 b93d 8766 30be
000002d0: 3988 95be 2518 c7be 5332 d4bd d561 c8bd
000002e0: 87ad 513c 59aa 1f3e 0902 d8be 86bf dbbc
000002f0: 192f 1fbe ce34 60be 4a77 f1bc 646d 3ebe
00000300: dfa5 d53c ed72 513d fbb1 e8be 7087 71be
00000310: f7bd cf3c e083 48be 09b4 1ebe daca 3ebe
00000320: a2b8 073f 69d7 a5be 815f bc3d e43a 6abd
00000330: 720f 2bbe 35a8 f13d 7eab 04be ed65 f73d
00000340: 9684 083f 5290 03be c99b 1cbe 4f0e fe3d
00000350: 9e0f c63d 1e89 053e e68a 01be fbd9 ccbe
00000360: cbe1 a63c 4612 fe3e 7a80 febd 22e0 64be
00000370: c3c1 623d 8812 f5bd 9bbc 2c3e a000 b13c
00000380: f153 33be dcb5 d5be ccbb 78be 844a 3abe
00000390: cd2b 42bd a9e7 b43d d77e 2cbe 5f0e 8a3d
000003a0: 4501 0fbe 0d1e 8d3e 2a0f 80be 8843 9e3e
000003b0: 8c5e 7ebd 96b6 6ebe b4a2 6f3e b0c1 98bc
000003c0: 3af9 41be 542f 813e d0a2 88be 7bc6 8abe
000003d0: 327c dabd 3dfe 6e3d 53ff 043f 9075 65bc
000003e0: 1b4d a5be 9cbf 91be ab3a 113f 4bc8 303e
000003f0: 2679 623e f837 85be c79a 82be 2edb 97bd
0.20987204 -0.02973411 -0.07803501 0.08219853 -0.38777745 -0.121495426 0.090383135 -0.29351026
0.37720585 0.16645844 0.15824448 -0.14880824 -0.052351825 -0.097489394 0.41054982 0.03857686
-0.030757781 0.14828369 -0.0723325 -0.04809599 -0.16483915 -0.12764171 0.19093627 0.05237231
0.21939835 -0.14458302 0.04410395 -0.33707938 -0.45863003 -0.25827882 0.087185726 -0.23017873
-0.14226943 0.16928737 -0.22800753 -0.14579746 -0.18590513 -0.031392857 0.18552722 -0.21508418
0.0022035227 0.3274571 0.11379843 0.24803919 0.31564346 0.09510318 -0.189752 -0.15219772
-0.32585296 -0.0111756455 -0.17066887 0.49349824 -0.009053375 -0.14226897 -0.061983943 -0.32508633
-0.050880022 0.029597124 -0.23402326 0.23357107 -0.070129886 -0.36910164 0.13730912 -0.15213929
-0.13507631 0.06802403 0.27809244 -0.1303461 0.16594556 -0.07487127 -0.14016826 -0.049238812
0.06579434 0.07095118 0.17061022 -0.09829048 0.25762993 0.13537513 -0.25851697 0.15022063
-0.1820184 -0.007721805 -0.36215883 -0.18810442 -0.040273838 -0.1635046 -0.086672686 -0.27554235
-0.33399624 0.040351417 -0.11478792 -0.30160058 -0.110192835 0.046083957 -0.11465228 -0.11168665
0.064668335 -0.10731802 -0.01943145 0.026470091 0.46244812 0.3417119 -0.042086586 -0.123368055
-0.2771898 -0.31455854 -0.18206032 -0.11892508 -0.13973777 -0.16152616 -0.08899056 -0.08996767
-0.20126744 0.286253 -0.20774181 -0.07392696 -0.10607323 0.29187223 -0.31866622 -0.11258585
-0.16955324 0.2924075 -0.15034318 -0.05327253 -0.27893782 0.38383874 -0.25403112 0.03555841
0.19220006 -0.096611105 -0.07103482 -0.24414517 -0.16622506 0.116220266 -0.31252787 -0.2284296
-0.032129765 -0.09929107 -0.25836292 -0.07018737 -0.10172476 0.21701463 -0.17534776 0.07995228
-0.060508955 0.19137472 0.076672815 0.48731193 0.47530055 -0.21094128 -0.037051637 0.17154855
0.042457737 -0.18872555 -0.121191844 -0.23767518 -0.19599172 -0.04831374 0.33146068 -0.17830585
-0.2204632 0.13261788 -0.12016207 -0.13112025 -0.30310464 -0.121627465 -0.00018692865 -0.10993537
0.12763883 0.45205784 -0.26427397 0.49509794 -0.39459145 -0.2944771 0.24274611 -0.34573293
0.06163598 0.27029774 0.090529315 -0.17226611 -0.29205492 -0.38885608 -0.10361161 -0.09784285
0.01279772 0.15592326 -0.42189053 -0.026824724 -0.1554531 -0.21895143 -0.029475827 -0.18596417
0.02608007 0.051134992 -0.45448288 -0.23586822 0.025359137 -0.19581556 -0.15498365 -0.18632069
0.530161 -0.32390907 0.091979034 -0.05718507 -0.1670511 0.11799661 -0.12956044 0.12079988
0.5332731 -0.12848023 -0.15293802 0.12405073 0.096709475 0.13040587 -0.12650642 -0.40010056
0.020371338 0.49623317 -0.12426849 -0.22351125 0.055360567 -0.11966425 0.16868822 0.021606743
-0.1751249 -0.4174031 -0.24290389 -0.18192488 -0.047405053 0.08833248 -0.1684526 0.06741022
-0.13965328 0.2756199 -0.2501157 0.30910897 -0.062101886 -0.23311839 0.2340191 -0.018647045
-0.18942729 0.2523142 -0.26686716 -0.27104554 -0.106682196 0.05834793 0.51952094 -0.01400508
-0.3228539 -0.284665 0.56730145 0.17263906 0.22116527 -0.26019263 -0.2550871 -0.07414852

linear2.weight f4 [3, 256]
00000000: 8161 9f3e 1185 8cbe 2bd7 5bbf ef48 d3bd
00000010: 2b2c 45be 3756 ccbd 86df 253e 200c 32bd
00000020: c490 d33e 59ff a73d 3ab2 c9be aae0 bfbe
00000030: c1dc 8abe 3f85 d93d 9ea3 a03e 709a 42bc
00000040: ebfc ebbd 232f b03e 5dbc 9d3e a0d0 a93b
00000050: 5258 e7bd 84df c03c bb34 38be a49e cd3e
00000060: 92b0 413d 4d2d ba3d 419d 51bd 1fe9 d5bd
00000070: e6bf d8be 2eb9 343e 533a 653c 5c50 76bd
00000080: 35fb 1bbf cf2a 0c3e 9bef 1f3e a84d abbe
00000090: f13c d6be 2588 92be 7dee 8a3e 74c9 143d
000000a0: e7d5 483c a071 ad3e 1333 f9bd 971e 6c3e
000000b0: 2a20 483e db8e 103e 4c89 c23e da2c 2fbf
000000c0: 2a5a 93be f1da 16be f82d c73b 757c be3e
000000d0: 18d9 1dbe 4fd3 f1bd e3dc 45bd 408f 683b
000000e0: b52b 97be 7ac7 4fbd a047 87be 4dc7 bc3e
000000f0: 5280 8bbe 875f 92be 3a6e 48bd 3d6d aebe
00000100: 2461 7fbd 2fba fe3c 751a 323e 3dc1 1dbe
00000110: 283a 23bf 5e7f c5bd cb5e ecbe 36c2 ec3e
00000120: e7b3 b7be f09b a33d 503c 313e de1d 10bc
00000130: 0a2f c53e 0d97 293d 5adb c8bd 9edc b83e
00000140: 993d e9be 0190 88be 40ac 50bc ba51 23be
00000150: 62e0 393d 0ed0 a0bc 218f e63e 5cfc eabe
00000160: ab68 f7bd 0d97 e83d f6df 3fbf 9897 45bd
00000170: 6269 8abe 5267 c73e a440 6c3e 0104 c63e
00000180: 46ea a7be 4be5 7dbd b883 953e 58cf 6dbd
00000190: 4872 0a3f 5fef 893e 5d26 58be 3d1b 293d
000001a0: a182 8abe d263 ffba ab03 6bbe 9457 a4bb
000001b0: b825 e3be 17fd 1fbe 28b7 55be 79d5 a73e
000001c0: db26 0ebd 452c 8d3e 871a 00be 0e0f 853e
000001d0: 9ca3 bfbd 2f19 a43e ffdf 3fbe 249e 5cbe
000001e0: ba91 20be d0ba 613e 386f 5dbe 680b 72bd
000001f0: 1fe0 97bc 521d bd3e bc16 d3bd dccf 123a
00000200: cc2d 9b3e da2d 16be 664c ca3c e99f d5bd
00000210: 8c7a 33bd 4cc5 de3e 265c 8bbe b18b d6be
00000220: 9511 8bbe abd4 36bd db32 1bbe c448 0dbf
00000230: 855b 6abd b7ae c23d 9cb0 53bd 8956 e2be
00000240: 6ccc 933b 52fe 4c3e fbfe a9be 98a7 843e
00000250: 0ce4 4d3e 296f eb3c d686 1ebe 6bf3 e43d
00000260: 0da1 853e 1c76 babe d4e2 d6be b595 38be
00000270: 51d4 49bc c647 d7be da32 813e 29cd ebbe
00000280: 9880 c8be 40e2 033f 1bcc 4cbc d0e5 9abe
00000290: 03d3 cbba 43e3 f0bd 9e53 fc3e 3eff cfbd
000002a0: f684 843e b8be a73e 32c4 1cbe af59 a83e
000002b0: 3954 04bb 0010 98bd 3c40 df3e b686 41be
000002c0: 67ae 0fbe 1a86 b03d 72d8 753e 7d39 5bbd
000002d0: b306 acbe 7301 f43c e0a6 15be f766 28be
000002e0: b1f6 b4bd 2ea5 e73d d81f 093c 2cdb 8ebc
000002f0: 294f febe 3566 d9bd c8af 893d 699c e7bd
00000300: 331e 82be 5293 6fbd 31ed 8ebc 9294 d4be
00000310: cd54 4fbe 9583 28bd 5a4c b4be 3980 04bf
00000320: becc 603e ac36 0c3d 250c c83e d94d 75bc
00000330: fe5d 1fbd 1d3a 053d 937e dfbe a51d bf3d
00000340: 5a80 bb3e 5261 82bd 12ea a43d 54e6 333e
00000350: 99f1 1e3c 1e6b 14be 3b35 4a3e 0d16 72bb
00000360: e836 e43d 5640 9f3e ff17 85bc 34c2 98bd
00000370: caa2 bc3d 063a 0cbb bb9d 713e 1400 a03d
00000380: 5150 8abe 20e5 21bc 2583 64be a20c 36bf
00000390: 750d 633e 4994 e63e bd56 7bbe aa2b 3c3b
000003a0: bd6f 233e 83de b33e 46ce e4be 4926 c33d
000003b0: a0fe 89be 1bbe 32bc 607e 8e3d 7d60 80bd
000003c0: 83f1 9dbd b093 1b3f 08a1 323c e026 69be
000003d0: 884d 91bd 1bda 3bbc 7407 cb3e 926d 06be
000003e0: 50e5 a43d 5208 b8be 45d7 983e 38d2 2b3e
000003f0: 820c 123e 695f f03b 5800 cbbd f9e8 3b3d
0.31129077 -0.27445272 -0.85875195 -0.10316645 -0.1925513 -0.09977382 0.16198549 -0.043468595
0.41321385 0.082030006 -0.3939379 -0.37476093 -0.27121547 0.10621118 0.3137483 -0.011877641
-0.1152285 0.34410962 0.30807772 0.0051823407 -0.11296143 0.02354408 -0.17988865 0.40160096
0.04728753 0.09090672 -0.05117536 -0.10444855 -0.42333907 0.17648765 0.013990956 -0.06013523
-0.60930187 0.13688205 0.15618746 -0.33457685 -0.4184337 -0.28619495 0.27135077 0.036324933
0.01225803 0.33875751 -0.12167945 0.23058544 0.1954352 0.14116995 0.37995374 -0.68427813
-0.28779727 -0.14731957 0.006078478 0.37204328 -0.15414846 -0.11807882 -0.048306357 0.0035485774
-0.29525533 -0.050727345 -0.26421833 0.36870804 -0.27246338 -0.28588507 -0.048933245 -0.34067717
-0.0623485 0.031094639 0.17392905 -0.15405746 -0.63760614 -0.09643434 -0.4616607 0.4624192
-0.35879442 0.07988727 0.17308164 -0.008796183 0.3851245 0.04140382 -0.09807463 0.36105818
-0.45554808 -0.26672366 -0.01273638 -0.15949145 0.045380004 -0.019630458 0.45031074 -0.4589566
-0.12080511 0.11356936 -0.7495111 -0.048240274 -0.27033526 0.38946015 0.23071533 0.3867493
-0.32795924 -0.06198625 0.29202056 -0.058059067 0.5408063 0.26940438 -0.21108384 0.041285742
-0.27052787 -0.0019484705 -0.22950618 -0.005015323 -0.44364715 -0.1562389 -0.2087065 0.32780054
-0.034705024 0.27572837 -0.1251012 0.25988048 -0.09357378 0.32050464 -0.18737791 -0.21544701
-0.1568059 0.2204392 -0.21624458 -0.05909291 -0.018539486 0.36936432 -0.103070706 0.00056004315
0.30308378 -0.14665928 0.024694633 -0.10430891 -0.04381804 0.435099 -0.2721874 -0.4190345
-0.27161852 -0.04463641 -0.15156119 -0.55189157 -0.057216186 0.095059805 -0.0516821 -0.44206646
0.004510453 0.2001889 -0.33202347 0.25909114 0.20106524 0.028739529 -0.15481123 0.11179241
0.26099434 -0.36418235 -0.4196993 -0.18025859 -0.012318687 -0.42046946 0.2523411 -0.46054962
-0.3916061 0.51517105 -0.012499834 -0.30253458 -0.0015550557 -0.11762097 0.49282545 -0.101561055
0.2588269 0.32762694 -0.15309218 0.32880923 -0.0020191802 -0.07424927 0.43603694 -0.18899044
-0.14031373 0.08619328 0.24008349 -0.053521622 -0.3359886 0.029785847 -0.14614439 -0.16445528
-0.08836115 0.113108024 0.008369409 -0.017438494 -0.4966977 -0.106151976 0.06722981 -0.1130913
-0.25413665 -0.058490105 -0.017447086 -0.415196 -0.20247193 -0.04114111 -0.35214502 -0.5175815
0.21953103 0.034231827 0.39071766 -0.014972174 -0.038907997 0.032526124 -0.43651256 0.09331826
0.36621362 -0.063662186 0.08052458 0.17568332 0.009701156 -0.14493987 0.19746868 -0.0036939413
0.11143285 0.31103772 -0.016246794 -0.07458916 0.09210737 -0.002139689 0.23595326 0.07812515
-0.27014402 -0.009881288 -0.22315653 -0.71113026 0.22173102 0.45035008 -0.24544807 0.002871255
0.15960594 0.351307 -0.44688624 0.09528787 -0.26952076 -0.0109095825 0.06957698 -0.06268404
-0.0771208 0.6077223 0.010902651 -0.22768736 -0.07094866 -0.011465575 0.39654124 -0.13127735
0.080515504 -0.35943848 0.29851738 0.16779411 0.14262584 0.0073355925 -0.09912175 0.045876477

linear2.bias f4 [3]
00000000: 9178 593e 6875 453d 171f 5d3d
0.21237399 0.04820767 0.053984728
